{"backend": "tensorflow", "keras_version": "2.2.2", "config": {"layers": [{"name": "input_1", "config": {"dtype": "float32", "name": "input_1", "batch_input_shape": [null, 224, 224, 3], "sparse": false}, "inbound_nodes": [], "class_name": "InputLayer"}, {"name": "conv1_pad", "config": {"data_format": "channels_last", "trainable": false, "name": "conv1_pad", "padding": [[0, 1], [0, 1]]}, "inbound_nodes": [[["input_1", 0, 0, {}]]], "class_name": "ZeroPadding2D"}, {"name": "conv1", "config": {"strides": [2, 2], "bias_regularizer": null, "kernel_regularizer": null, "bias_initializer": {"config": {}, "class_name": "Zeros"}, "use_bias": false, "activation": "linear", "name": "conv1", "trainable": false, "padding": "valid", "dilation_rate": [1, 1], "activity_regularizer": null, "data_format": "channels_last", "kernel_constraint": null, "filters": 32, "kernel_initializer": {"config": {"scale": 1.0, "mode": "fan_avg", "seed": null, "distribution": "uniform"}, "class_name": "VarianceScaling"}, "kernel_size": [3, 3], "bias_constraint": null}, "inbound_nodes": [[["conv1_pad", 0, 0, {}]]], "class_name": "Conv2D"}, {"name": "conv1_bn", "config": {"beta_constraint": null, "moving_mean_initializer": {"config": {}, "class_name": "Zeros"}, "gamma_constraint": null, "gamma_regularizer": null, "name": "conv1_bn", "epsilon": 0.001, "trainable": false, "gamma_initializer": {"config": {}, "class_name": "Ones"}, "axis": -1, "center": true, "beta_regularizer": null, "moving_variance_initializer": {"config": {}, "class_name": "Ones"}, "beta_initializer": {"config": {}, "class_name": "Zeros"}, "scale": true, "momentum": 0.99}, "inbound_nodes": [[["conv1", 0, 0, {}]]], "class_name": "BatchNormalization"}, {"name": "conv1_relu", "config": {"trainable": false, "name": "conv1_relu", "max_value": 6.0}, "inbound_nodes": [[["conv1_bn", 0, 0, {}]]], "class_name": "ReLU"}, {"name": "conv_dw_1", "config": {"depthwise_regularizer": null, "strides": [1, 1], "bias_initializer": {"config": {}, "class_name": "Zeros"}, "use_bias": false, "activation": "linear", "depthwise_initializer": {"config": {"scale": 1.0, "mode": "fan_avg", "seed": null, "distribution": "uniform"}, "class_name": "VarianceScaling"}, "name": "conv_dw_1", "trainable": false, "depth_multiplier": 1, "padding": "same", "dilation_rate": [1, 1], "activity_regularizer": null, "data_format": "channels_last", "bias_regularizer": null, "kernel_size": [3, 3], "depthwise_constraint": null, "bias_constraint": null}, "inbound_nodes": [[["conv1_relu", 0, 0, {}]]], "class_name": "DepthwiseConv2D"}, {"name": "conv_dw_1_bn", "config": {"beta_constraint": null, "moving_mean_initializer": {"config": {}, "class_name": "Zeros"}, "gamma_constraint": null, "gamma_regularizer": null, "name": "conv_dw_1_bn", "epsilon": 0.001, "trainable": false, "gamma_initializer": {"config": {}, "class_name": "Ones"}, "axis": -1, "center": true, "beta_regularizer": null, "moving_variance_initializer": {"config": {}, "class_name": "Ones"}, "beta_initializer": {"config": {}, "class_name": "Zeros"}, "scale": true, "momentum": 0.99}, "inbound_nodes": [[["conv_dw_1", 0, 0, {}]]], "class_name": "BatchNormalization"}, {"name": "conv_dw_1_relu", "config": {"trainable": false, "name": "conv_dw_1_relu", "max_value": 6.0}, "inbound_nodes": [[["conv_dw_1_bn", 0, 0, {}]]], "class_name": "ReLU"}, {"name": "conv_pw_1", "config": {"strides": [1, 1], "bias_regularizer": null, "kernel_regularizer": null, "bias_initializer": {"config": {}, "class_name": "Zeros"}, "use_bias": false, "activation": "linear", "name": "conv_pw_1", "trainable": false, "padding": "same", "dilation_rate": [1, 1], "activity_regularizer": null, "data_format": "channels_last", "kernel_constraint": null, "filters": 64, "kernel_initializer": {"config": {"scale": 1.0, "mode": "fan_avg", "seed": null, "distribution": "uniform"}, "class_name": "VarianceScaling"}, "kernel_size": [1, 1], "bias_constraint": null}, "inbound_nodes": [[["conv_dw_1_relu", 0, 0, {}]]], "class_name": "Conv2D"}, {"name": "conv_pw_1_bn", "config": {"beta_constraint": null, "moving_mean_initializer": {"config": {}, "class_name": "Zeros"}, "gamma_constraint": null, "gamma_regularizer": null, "name": "conv_pw_1_bn", "epsilon": 0.001, "trainable": false, "gamma_initializer": {"config": {}, "class_name": "Ones"}, "axis": -1, "center": true, "beta_regularizer": null, "moving_variance_initializer": {"config": {}, "class_name": "Ones"}, "beta_initializer": {"config": {}, "class_name": "Zeros"}, "scale": true, "momentum": 0.99}, "inbound_nodes": [[["conv_pw_1", 0, 0, {}]]], "class_name": "BatchNormalization"}, {"name": "conv_pw_1_relu", "config": {"trainable": false, "name": "conv_pw_1_relu", "max_value": 6.0}, "inbound_nodes": [[["conv_pw_1_bn", 0, 0, {}]]], "class_name": "ReLU"}, {"name": "conv_pad_2", "config": {"data_format": "channels_last", "trainable": false, "name": "conv_pad_2", "padding": [[0, 1], [0, 1]]}, "inbound_nodes": [[["conv_pw_1_relu", 0, 0, {}]]], "class_name": "ZeroPadding2D"}, {"name": "conv_dw_2", "config": {"depthwise_regularizer": null, "strides": [2, 2], "bias_initializer": {"config": {}, "class_name": "Zeros"}, "use_bias": false, "activation": "linear", "depthwise_initializer": {"config": {"scale": 1.0, "mode": "fan_avg", "seed": null, "distribution": "uniform"}, "class_name": "VarianceScaling"}, "name": "conv_dw_2", "trainable": false, "depth_multiplier": 1, "padding": "valid", "dilation_rate": [1, 1], "activity_regularizer": null, "data_format": "channels_last", "bias_regularizer": null, "kernel_size": [3, 3], "depthwise_constraint": null, "bias_constraint": null}, "inbound_nodes": [[["conv_pad_2", 0, 0, {}]]], "class_name": "DepthwiseConv2D"}, {"name": "conv_dw_2_bn", "config": {"beta_constraint": null, "moving_mean_initializer": {"config": {}, "class_name": "Zeros"}, "gamma_constraint": null, "gamma_regularizer": null, "name": "conv_dw_2_bn", "epsilon": 0.001, "trainable": false, "gamma_initializer": {"config": {}, "class_name": "Ones"}, "axis": -1, "center": true, "beta_regularizer": null, "moving_variance_initializer": {"config": {}, "class_name": "Ones"}, "beta_initializer": {"config": {}, "class_name": "Zeros"}, "scale": true, "momentum": 0.99}, "inbound_nodes": [[["conv_dw_2", 0, 0, {}]]], "class_name": "BatchNormalization"}, {"name": "conv_dw_2_relu", "config": {"trainable": false, "name": "conv_dw_2_relu", "max_value": 6.0}, "inbound_nodes": [[["conv_dw_2_bn", 0, 0, {}]]], "class_name": "ReLU"}, {"name": "conv_pw_2", "config": {"strides": [1, 1], "bias_regularizer": null, "kernel_regularizer": null, "bias_initializer": {"config": {}, "class_name": "Zeros"}, "use_bias": false, "activation": "linear", "name": "conv_pw_2", "trainable": false, "padding": "same", "dilation_rate": [1, 1], "activity_regularizer": null, "data_format": "channels_last", "kernel_constraint": null, "filters": 128, "kernel_initializer": {"config": {"scale": 1.0, "mode": "fan_avg", "seed": null, "distribution": "uniform"}, "class_name": "VarianceScaling"}, "kernel_size": [1, 1], "bias_constraint": null}, "inbound_nodes": [[["conv_dw_2_relu", 0, 0, {}]]], "class_name": "Conv2D"}, {"name": "conv_pw_2_bn", "config": {"beta_constraint": null, "moving_mean_initializer": {"config": {}, "class_name": "Zeros"}, "gamma_constraint": null, "gamma_regularizer": null, "name": "conv_pw_2_bn", "epsilon": 0.001, "trainable": false, "gamma_initializer": {"config": {}, "class_name": "Ones"}, "axis": -1, "center": true, "beta_regularizer": null, "moving_variance_initializer": {"config": {}, "class_name": "Ones"}, "beta_initializer": {"config": {}, "class_name": "Zeros"}, "scale": true, "momentum": 0.99}, "inbound_nodes": [[["conv_pw_2", 0, 0, {}]]], "class_name": "BatchNormalization"}, {"name": "conv_pw_2_relu", "config": {"trainable": false, "name": "conv_pw_2_relu", "max_value": 6.0}, "inbound_nodes": [[["conv_pw_2_bn", 0, 0, {}]]], "class_name": "ReLU"}, {"name": "conv_dw_3", "config": {"depthwise_regularizer": null, "strides": [1, 1], "bias_initializer": {"config": {}, "class_name": "Zeros"}, "use_bias": false, "activation": "linear", "depthwise_initializer": {"config": {"scale": 1.0, "mode": "fan_avg", "seed": null, "distribution": "uniform"}, "class_name": "VarianceScaling"}, "name": "conv_dw_3", "trainable": false, "depth_multiplier": 1, "padding": "same", "dilation_rate": [1, 1], "activity_regularizer": null, "data_format": "channels_last", "bias_regularizer": null, "kernel_size": [3, 3], "depthwise_constraint": null, "bias_constraint": null}, "inbound_nodes": [[["conv_pw_2_relu", 0, 0, {}]]], "class_name": "DepthwiseConv2D"}, {"name": "conv_dw_3_bn", "config": {"beta_constraint": null, "moving_mean_initializer": {"config": {}, "class_name": "Zeros"}, "gamma_constraint": null, "gamma_regularizer": null, "name": "conv_dw_3_bn", "epsilon": 0.001, "trainable": false, "gamma_initializer": {"config": {}, "class_name": "Ones"}, "axis": -1, "center": true, "beta_regularizer": null, "moving_variance_initializer": {"config": {}, "class_name": "Ones"}, "beta_initializer": {"config": {}, "class_name": "Zeros"}, "scale": true, "momentum": 0.99}, "inbound_nodes": [[["conv_dw_3", 0, 0, {}]]], "class_name": "BatchNormalization"}, {"name": "conv_dw_3_relu", "config": {"trainable": false, "name": "conv_dw_3_relu", "max_value": 6.0}, "inbound_nodes": [[["conv_dw_3_bn", 0, 0, {}]]], "class_name": "ReLU"}, {"name": "conv_pw_3", "config": {"strides": [1, 1], "bias_regularizer": null, "kernel_regularizer": null, "bias_initializer": {"config": {}, "class_name": "Zeros"}, "use_bias": false, "activation": "linear", "name": "conv_pw_3", "trainable": false, "padding": "same", "dilation_rate": [1, 1], "activity_regularizer": null, "data_format": "channels_last", "kernel_constraint": null, "filters": 128, "kernel_initializer": {"config": {"scale": 1.0, "mode": "fan_avg", "seed": null, "distribution": "uniform"}, "class_name": "VarianceScaling"}, "kernel_size": [1, 1], "bias_constraint": null}, "inbound_nodes": [[["conv_dw_3_relu", 0, 0, {}]]], "class_name": "Conv2D"}, {"name": "conv_pw_3_bn", "config": {"beta_constraint": null, "moving_mean_initializer": {"config": {}, "class_name": "Zeros"}, "gamma_constraint": null, "gamma_regularizer": null, "name": "conv_pw_3_bn", "epsilon": 0.001, "trainable": false, "gamma_initializer": {"config": {}, "class_name": "Ones"}, "axis": -1, "center": true, "beta_regularizer": null, "moving_variance_initializer": {"config": {}, "class_name": "Ones"}, "beta_initializer": {"config": {}, "class_name": "Zeros"}, "scale": true, "momentum": 0.99}, "inbound_nodes": [[["conv_pw_3", 0, 0, {}]]], "class_name": "BatchNormalization"}, {"name": "conv_pw_3_relu", "config": {"trainable": false, "name": "conv_pw_3_relu", "max_value": 6.0}, "inbound_nodes": [[["conv_pw_3_bn", 0, 0, {}]]], "class_name": "ReLU"}, {"name": "conv_pad_4", "config": {"data_format": "channels_last", "trainable": false, "name": "conv_pad_4", "padding": [[0, 1], [0, 1]]}, "inbound_nodes": [[["conv_pw_3_relu", 0, 0, {}]]], "class_name": "ZeroPadding2D"}, {"name": "conv_dw_4", "config": {"depthwise_regularizer": null, "strides": [2, 2], "bias_initializer": {"config": {}, "class_name": "Zeros"}, "use_bias": false, "activation": "linear", "depthwise_initializer": {"config": {"scale": 1.0, "mode": "fan_avg", "seed": null, "distribution": "uniform"}, "class_name": "VarianceScaling"}, "name": "conv_dw_4", "trainable": false, "depth_multiplier": 1, "padding": "valid", "dilation_rate": [1, 1], "activity_regularizer": null, "data_format": "channels_last", "bias_regularizer": null, "kernel_size": [3, 3], "depthwise_constraint": null, "bias_constraint": null}, "inbound_nodes": [[["conv_pad_4", 0, 0, {}]]], "class_name": "DepthwiseConv2D"}, {"name": "conv_dw_4_bn", "config": {"beta_constraint": null, "moving_mean_initializer": {"config": {}, "class_name": "Zeros"}, "gamma_constraint": null, "gamma_regularizer": null, "name": "conv_dw_4_bn", "epsilon": 0.001, "trainable": false, "gamma_initializer": {"config": {}, "class_name": "Ones"}, "axis": -1, "center": true, "beta_regularizer": null, "moving_variance_initializer": {"config": {}, "class_name": "Ones"}, "beta_initializer": {"config": {}, "class_name": "Zeros"}, "scale": true, "momentum": 0.99}, "inbound_nodes": [[["conv_dw_4", 0, 0, {}]]], "class_name": "BatchNormalization"}, {"name": "conv_dw_4_relu", "config": {"trainable": false, "name": "conv_dw_4_relu", "max_value": 6.0}, "inbound_nodes": [[["conv_dw_4_bn", 0, 0, {}]]], "class_name": "ReLU"}, {"name": "conv_pw_4", "config": {"strides": [1, 1], "bias_regularizer": null, "kernel_regularizer": null, "bias_initializer": {"config": {}, "class_name": "Zeros"}, "use_bias": false, "activation": "linear", "name": "conv_pw_4", "trainable": false, "padding": "same", "dilation_rate": [1, 1], "activity_regularizer": null, "data_format": "channels_last", "kernel_constraint": null, "filters": 256, "kernel_initializer": {"config": {"scale": 1.0, "mode": "fan_avg", "seed": null, "distribution": "uniform"}, "class_name": "VarianceScaling"}, "kernel_size": [1, 1], "bias_constraint": null}, "inbound_nodes": [[["conv_dw_4_relu", 0, 0, {}]]], "class_name": "Conv2D"}, {"name": "conv_pw_4_bn", "config": {"beta_constraint": null, "moving_mean_initializer": {"config": {}, "class_name": "Zeros"}, "gamma_constraint": null, "gamma_regularizer": null, "name": "conv_pw_4_bn", "epsilon": 0.001, "trainable": false, "gamma_initializer": {"config": {}, "class_name": "Ones"}, "axis": -1, "center": true, "beta_regularizer": null, "moving_variance_initializer": {"config": {}, "class_name": "Ones"}, "beta_initializer": {"config": {}, "class_name": "Zeros"}, "scale": true, "momentum": 0.99}, "inbound_nodes": [[["conv_pw_4", 0, 0, {}]]], "class_name": "BatchNormalization"}, {"name": "conv_pw_4_relu", "config": {"trainable": false, "name": "conv_pw_4_relu", "max_value": 6.0}, "inbound_nodes": [[["conv_pw_4_bn", 0, 0, {}]]], "class_name": "ReLU"}, {"name": "conv_dw_5", "config": {"depthwise_regularizer": null, "strides": [1, 1], "bias_initializer": {"config": {}, "class_name": "Zeros"}, "use_bias": false, "activation": "linear", "depthwise_initializer": {"config": {"scale": 1.0, "mode": "fan_avg", "seed": null, "distribution": "uniform"}, "class_name": "VarianceScaling"}, "name": "conv_dw_5", "trainable": false, "depth_multiplier": 1, "padding": "same", "dilation_rate": [1, 1], "activity_regularizer": null, "data_format": "channels_last", "bias_regularizer": null, "kernel_size": [3, 3], "depthwise_constraint": null, "bias_constraint": null}, "inbound_nodes": [[["conv_pw_4_relu", 0, 0, {}]]], "class_name": "DepthwiseConv2D"}, {"name": "conv_dw_5_bn", "config": {"beta_constraint": null, "moving_mean_initializer": {"config": {}, "class_name": "Zeros"}, "gamma_constraint": null, "gamma_regularizer": null, "name": "conv_dw_5_bn", "epsilon": 0.001, "trainable": false, "gamma_initializer": {"config": {}, "class_name": "Ones"}, "axis": -1, "center": true, "beta_regularizer": null, "moving_variance_initializer": {"config": {}, "class_name": "Ones"}, "beta_initializer": {"config": {}, "class_name": "Zeros"}, "scale": true, "momentum": 0.99}, "inbound_nodes": [[["conv_dw_5", 0, 0, {}]]], "class_name": "BatchNormalization"}, {"name": "conv_dw_5_relu", "config": {"trainable": false, "name": "conv_dw_5_relu", "max_value": 6.0}, "inbound_nodes": [[["conv_dw_5_bn", 0, 0, {}]]], "class_name": "ReLU"}, {"name": "conv_pw_5", "config": {"strides": [1, 1], "bias_regularizer": null, "kernel_regularizer": null, "bias_initializer": {"config": {}, "class_name": "Zeros"}, "use_bias": false, "activation": "linear", "name": "conv_pw_5", "trainable": false, "padding": "same", "dilation_rate": [1, 1], "activity_regularizer": null, "data_format": "channels_last", "kernel_constraint": null, "filters": 256, "kernel_initializer": {"config": {"scale": 1.0, "mode": "fan_avg", "seed": null, "distribution": "uniform"}, "class_name": "VarianceScaling"}, "kernel_size": [1, 1], "bias_constraint": null}, "inbound_nodes": [[["conv_dw_5_relu", 0, 0, {}]]], "class_name": "Conv2D"}, {"name": "conv_pw_5_bn", "config": {"beta_constraint": null, "moving_mean_initializer": {"config": {}, "class_name": "Zeros"}, "gamma_constraint": null, "gamma_regularizer": null, "name": "conv_pw_5_bn", "epsilon": 0.001, "trainable": false, "gamma_initializer": {"config": {}, "class_name": "Ones"}, "axis": -1, "center": true, "beta_regularizer": null, "moving_variance_initializer": {"config": {}, "class_name": "Ones"}, "beta_initializer": {"config": {}, "class_name": "Zeros"}, "scale": true, "momentum": 0.99}, "inbound_nodes": [[["conv_pw_5", 0, 0, {}]]], "class_name": "BatchNormalization"}, {"name": "conv_pw_5_relu", "config": {"trainable": false, "name": "conv_pw_5_relu", "max_value": 6.0}, "inbound_nodes": [[["conv_pw_5_bn", 0, 0, {}]]], "class_name": "ReLU"}, {"name": "conv_pad_6", "config": {"data_format": "channels_last", "trainable": false, "name": "conv_pad_6", "padding": [[0, 1], [0, 1]]}, "inbound_nodes": [[["conv_pw_5_relu", 0, 0, {}]]], "class_name": "ZeroPadding2D"}, {"name": "conv_dw_6", "config": {"depthwise_regularizer": null, "strides": [2, 2], "bias_initializer": {"config": {}, "class_name": "Zeros"}, "use_bias": false, "activation": "linear", "depthwise_initializer": {"config": {"scale": 1.0, "mode": "fan_avg", "seed": null, "distribution": "uniform"}, "class_name": "VarianceScaling"}, "name": "conv_dw_6", "trainable": false, "depth_multiplier": 1, "padding": "valid", "dilation_rate": [1, 1], "activity_regularizer": null, "data_format": "channels_last", "bias_regularizer": null, "kernel_size": [3, 3], "depthwise_constraint": null, "bias_constraint": null}, "inbound_nodes": [[["conv_pad_6", 0, 0, {}]]], "class_name": "DepthwiseConv2D"}, {"name": "conv_dw_6_bn", "config": {"beta_constraint": null, "moving_mean_initializer": {"config": {}, "class_name": "Zeros"}, "gamma_constraint": null, "gamma_regularizer": null, "name": "conv_dw_6_bn", "epsilon": 0.001, "trainable": false, "gamma_initializer": {"config": {}, "class_name": "Ones"}, "axis": -1, "center": true, "beta_regularizer": null, "moving_variance_initializer": {"config": {}, "class_name": "Ones"}, "beta_initializer": {"config": {}, "class_name": "Zeros"}, "scale": true, "momentum": 0.99}, "inbound_nodes": [[["conv_dw_6", 0, 0, {}]]], "class_name": "BatchNormalization"}, {"name": "conv_dw_6_relu", "config": {"trainable": false, "name": "conv_dw_6_relu", "max_value": 6.0}, "inbound_nodes": [[["conv_dw_6_bn", 0, 0, {}]]], "class_name": "ReLU"}, {"name": "conv_pw_6", "config": {"strides": [1, 1], "bias_regularizer": null, "kernel_regularizer": null, "bias_initializer": {"config": {}, "class_name": "Zeros"}, "use_bias": false, "activation": "linear", "name": "conv_pw_6", "trainable": false, "padding": "same", "dilation_rate": [1, 1], "activity_regularizer": null, "data_format": "channels_last", "kernel_constraint": null, "filters": 512, "kernel_initializer": {"config": {"scale": 1.0, "mode": "fan_avg", "seed": null, "distribution": "uniform"}, "class_name": "VarianceScaling"}, "kernel_size": [1, 1], "bias_constraint": null}, "inbound_nodes": [[["conv_dw_6_relu", 0, 0, {}]]], "class_name": "Conv2D"}, {"name": "conv_pw_6_bn", "config": {"beta_constraint": null, "moving_mean_initializer": {"config": {}, "class_name": "Zeros"}, "gamma_constraint": null, "gamma_regularizer": null, "name": "conv_pw_6_bn", "epsilon": 0.001, "trainable": false, "gamma_initializer": {"config": {}, "class_name": "Ones"}, "axis": -1, "center": true, "beta_regularizer": null, "moving_variance_initializer": {"config": {}, "class_name": "Ones"}, "beta_initializer": {"config": {}, "class_name": "Zeros"}, "scale": true, "momentum": 0.99}, "inbound_nodes": [[["conv_pw_6", 0, 0, {}]]], "class_name": "BatchNormalization"}, {"name": "conv_pw_6_relu", "config": {"trainable": false, "name": "conv_pw_6_relu", "max_value": 6.0}, "inbound_nodes": [[["conv_pw_6_bn", 0, 0, {}]]], "class_name": "ReLU"}, {"name": "conv_dw_7", "config": {"depthwise_regularizer": null, "strides": [1, 1], "bias_initializer": {"config": {}, "class_name": "Zeros"}, "use_bias": false, "activation": "linear", "depthwise_initializer": {"config": {"scale": 1.0, "mode": "fan_avg", "seed": null, "distribution": "uniform"}, "class_name": "VarianceScaling"}, "name": "conv_dw_7", "trainable": false, "depth_multiplier": 1, "padding": "same", "dilation_rate": [1, 1], "activity_regularizer": null, "data_format": "channels_last", "bias_regularizer": null, "kernel_size": [3, 3], "depthwise_constraint": null, "bias_constraint": null}, "inbound_nodes": [[["conv_pw_6_relu", 0, 0, {}]]], "class_name": "DepthwiseConv2D"}, {"name": "conv_dw_7_bn", "config": {"beta_constraint": null, "moving_mean_initializer": {"config": {}, "class_name": "Zeros"}, "gamma_constraint": null, "gamma_regularizer": null, "name": "conv_dw_7_bn", "epsilon": 0.001, "trainable": false, "gamma_initializer": {"config": {}, "class_name": "Ones"}, "axis": -1, "center": true, "beta_regularizer": null, "moving_variance_initializer": {"config": {}, "class_name": "Ones"}, "beta_initializer": {"config": {}, "class_name": "Zeros"}, "scale": true, "momentum": 0.99}, "inbound_nodes": [[["conv_dw_7", 0, 0, {}]]], "class_name": "BatchNormalization"}, {"name": "conv_dw_7_relu", "config": {"trainable": false, "name": "conv_dw_7_relu", "max_value": 6.0}, "inbound_nodes": [[["conv_dw_7_bn", 0, 0, {}]]], "class_name": "ReLU"}, {"name": "conv_pw_7", "config": {"strides": [1, 1], "bias_regularizer": null, "kernel_regularizer": null, "bias_initializer": {"config": {}, "class_name": "Zeros"}, "use_bias": false, "activation": "linear", "name": "conv_pw_7", "trainable": false, "padding": "same", "dilation_rate": [1, 1], "activity_regularizer": null, "data_format": "channels_last", "kernel_constraint": null, "filters": 512, "kernel_initializer": {"config": {"scale": 1.0, "mode": "fan_avg", "seed": null, "distribution": "uniform"}, "class_name": "VarianceScaling"}, "kernel_size": [1, 1], "bias_constraint": null}, "inbound_nodes": [[["conv_dw_7_relu", 0, 0, {}]]], "class_name": "Conv2D"}, {"name": "conv_pw_7_bn", "config": {"beta_constraint": null, "moving_mean_initializer": {"config": {}, "class_name": "Zeros"}, "gamma_constraint": null, "gamma_regularizer": null, "name": "conv_pw_7_bn", "epsilon": 0.001, "trainable": false, "gamma_initializer": {"config": {}, "class_name": "Ones"}, "axis": -1, "center": true, "beta_regularizer": null, "moving_variance_initializer": {"config": {}, "class_name": "Ones"}, "beta_initializer": {"config": {}, "class_name": "Zeros"}, "scale": true, "momentum": 0.99}, "inbound_nodes": [[["conv_pw_7", 0, 0, {}]]], "class_name": "BatchNormalization"}, {"name": "conv_pw_7_relu", "config": {"trainable": false, "name": "conv_pw_7_relu", "max_value": 6.0}, "inbound_nodes": [[["conv_pw_7_bn", 0, 0, {}]]], "class_name": "ReLU"}, {"name": "conv_dw_8", "config": {"depthwise_regularizer": null, "strides": [1, 1], "bias_initializer": {"config": {}, "class_name": "Zeros"}, "use_bias": false, "activation": "linear", "depthwise_initializer": {"config": {"scale": 1.0, "mode": "fan_avg", "seed": null, "distribution": "uniform"}, "class_name": "VarianceScaling"}, "name": "conv_dw_8", "trainable": false, "depth_multiplier": 1, "padding": "same", "dilation_rate": [1, 1], "activity_regularizer": null, "data_format": "channels_last", "bias_regularizer": null, "kernel_size": [3, 3], "depthwise_constraint": null, "bias_constraint": null}, "inbound_nodes": [[["conv_pw_7_relu", 0, 0, {}]]], "class_name": "DepthwiseConv2D"}, {"name": "conv_dw_8_bn", "config": {"beta_constraint": null, "moving_mean_initializer": {"config": {}, "class_name": "Zeros"}, "gamma_constraint": null, "gamma_regularizer": null, "name": "conv_dw_8_bn", "epsilon": 0.001, "trainable": false, "gamma_initializer": {"config": {}, "class_name": "Ones"}, "axis": -1, "center": true, "beta_regularizer": null, "moving_variance_initializer": {"config": {}, "class_name": "Ones"}, "beta_initializer": {"config": {}, "class_name": "Zeros"}, "scale": true, "momentum": 0.99}, "inbound_nodes": [[["conv_dw_8", 0, 0, {}]]], "class_name": "BatchNormalization"}, {"name": "conv_dw_8_relu", "config": {"trainable": false, "name": "conv_dw_8_relu", "max_value": 6.0}, "inbound_nodes": [[["conv_dw_8_bn", 0, 0, {}]]], "class_name": "ReLU"}, {"name": "conv_pw_8", "config": {"strides": [1, 1], "bias_regularizer": null, "kernel_regularizer": null, "bias_initializer": {"config": {}, "class_name": "Zeros"}, "use_bias": false, "activation": "linear", "name": "conv_pw_8", "trainable": false, "padding": "same", "dilation_rate": [1, 1], "activity_regularizer": null, "data_format": "channels_last", "kernel_constraint": null, "filters": 512, "kernel_initializer": {"config": {"scale": 1.0, "mode": "fan_avg", "seed": null, "distribution": "uniform"}, "class_name": "VarianceScaling"}, "kernel_size": [1, 1], "bias_constraint": null}, "inbound_nodes": [[["conv_dw_8_relu", 0, 0, {}]]], "class_name": "Conv2D"}, {"name": "conv_pw_8_bn", "config": {"beta_constraint": null, "moving_mean_initializer": {"config": {}, "class_name": "Zeros"}, "gamma_constraint": null, "gamma_regularizer": null, "name": "conv_pw_8_bn", "epsilon": 0.001, "trainable": false, "gamma_initializer": {"config": {}, "class_name": "Ones"}, "axis": -1, "center": true, "beta_regularizer": null, "moving_variance_initializer": {"config": {}, "class_name": "Ones"}, "beta_initializer": {"config": {}, "class_name": "Zeros"}, "scale": true, "momentum": 0.99}, "inbound_nodes": [[["conv_pw_8", 0, 0, {}]]], "class_name": "BatchNormalization"}, {"name": "conv_pw_8_relu", "config": {"trainable": false, "name": "conv_pw_8_relu", "max_value": 6.0}, "inbound_nodes": [[["conv_pw_8_bn", 0, 0, {}]]], "class_name": "ReLU"}, {"name": "conv_dw_9", "config": {"depthwise_regularizer": null, "strides": [1, 1], "bias_initializer": {"config": {}, "class_name": "Zeros"}, "use_bias": false, "activation": "linear", "depthwise_initializer": {"config": {"scale": 1.0, "mode": "fan_avg", "seed": null, "distribution": "uniform"}, "class_name": "VarianceScaling"}, "name": "conv_dw_9", "trainable": false, "depth_multiplier": 1, "padding": "same", "dilation_rate": [1, 1], "activity_regularizer": null, "data_format": "channels_last", "bias_regularizer": null, "kernel_size": [3, 3], "depthwise_constraint": null, "bias_constraint": null}, "inbound_nodes": [[["conv_pw_8_relu", 0, 0, {}]]], "class_name": "DepthwiseConv2D"}, {"name": "conv_dw_9_bn", "config": {"beta_constraint": null, "moving_mean_initializer": {"config": {}, "class_name": "Zeros"}, "gamma_constraint": null, "gamma_regularizer": null, "name": "conv_dw_9_bn", "epsilon": 0.001, "trainable": false, "gamma_initializer": {"config": {}, "class_name": "Ones"}, "axis": -1, "center": true, "beta_regularizer": null, "moving_variance_initializer": {"config": {}, "class_name": "Ones"}, "beta_initializer": {"config": {}, "class_name": "Zeros"}, "scale": true, "momentum": 0.99}, "inbound_nodes": [[["conv_dw_9", 0, 0, {}]]], "class_name": "BatchNormalization"}, {"name": "conv_dw_9_relu", "config": {"trainable": false, "name": "conv_dw_9_relu", "max_value": 6.0}, "inbound_nodes": [[["conv_dw_9_bn", 0, 0, {}]]], "class_name": "ReLU"}, {"name": "conv_pw_9", "config": {"strides": [1, 1], "bias_regularizer": null, "kernel_regularizer": null, "bias_initializer": {"config": {}, "class_name": "Zeros"}, "use_bias": false, "activation": "linear", "name": "conv_pw_9", "trainable": false, "padding": "same", "dilation_rate": [1, 1], "activity_regularizer": null, "data_format": "channels_last", "kernel_constraint": null, "filters": 512, "kernel_initializer": {"config": {"scale": 1.0, "mode": "fan_avg", "seed": null, "distribution": "uniform"}, "class_name": "VarianceScaling"}, "kernel_size": [1, 1], "bias_constraint": null}, "inbound_nodes": [[["conv_dw_9_relu", 0, 0, {}]]], "class_name": "Conv2D"}, {"name": "conv_pw_9_bn", "config": {"beta_constraint": null, "moving_mean_initializer": {"config": {}, "class_name": "Zeros"}, "gamma_constraint": null, "gamma_regularizer": null, "name": "conv_pw_9_bn", "epsilon": 0.001, "trainable": false, "gamma_initializer": {"config": {}, "class_name": "Ones"}, "axis": -1, "center": true, "beta_regularizer": null, "moving_variance_initializer": {"config": {}, "class_name": "Ones"}, "beta_initializer": {"config": {}, "class_name": "Zeros"}, "scale": true, "momentum": 0.99}, "inbound_nodes": [[["conv_pw_9", 0, 0, {}]]], "class_name": "BatchNormalization"}, {"name": "conv_pw_9_relu", "config": {"trainable": false, "name": "conv_pw_9_relu", "max_value": 6.0}, "inbound_nodes": [[["conv_pw_9_bn", 0, 0, {}]]], "class_name": "ReLU"}, {"name": "conv_dw_10", "config": {"depthwise_regularizer": null, "strides": [1, 1], "bias_initializer": {"config": {}, "class_name": "Zeros"}, "use_bias": false, "activation": "linear", "depthwise_initializer": {"config": {"scale": 1.0, "mode": "fan_avg", "seed": null, "distribution": "uniform"}, "class_name": "VarianceScaling"}, "name": "conv_dw_10", "trainable": true, "depth_multiplier": 1, "padding": "same", "dilation_rate": [1, 1], "activity_regularizer": null, "data_format": "channels_last", "bias_regularizer": null, "kernel_size": [3, 3], "depthwise_constraint": null, "bias_constraint": null}, "inbound_nodes": [[["conv_pw_9_relu", 0, 0, {}]]], "class_name": "DepthwiseConv2D"}, {"name": "conv_dw_10_bn", "config": {"beta_constraint": null, "moving_mean_initializer": {"config": {}, "class_name": "Zeros"}, "gamma_constraint": null, "gamma_regularizer": null, "name": "conv_dw_10_bn", "epsilon": 0.001, "trainable": true, "gamma_initializer": {"config": {}, "class_name": "Ones"}, "axis": -1, "center": true, "beta_regularizer": null, "moving_variance_initializer": {"config": {}, "class_name": "Ones"}, "beta_initializer": {"config": {}, "class_name": "Zeros"}, "scale": true, "momentum": 0.99}, "inbound_nodes": [[["conv_dw_10", 0, 0, {}]]], "class_name": "BatchNormalization"}, {"name": "conv_dw_10_relu", "config": {"trainable": true, "name": "conv_dw_10_relu", "max_value": 6.0}, "inbound_nodes": [[["conv_dw_10_bn", 0, 0, {}]]], "class_name": "ReLU"}, {"name": "conv_pw_10", "config": {"strides": [1, 1], "bias_regularizer": null, "kernel_regularizer": null, "bias_initializer": {"config": {}, "class_name": "Zeros"}, "use_bias": false, "activation": "linear", "name": "conv_pw_10", "trainable": true, "padding": "same", "dilation_rate": [1, 1], "activity_regularizer": null, "data_format": "channels_last", "kernel_constraint": null, "filters": 512, "kernel_initializer": {"config": {"scale": 1.0, "mode": "fan_avg", "seed": null, "distribution": "uniform"}, "class_name": "VarianceScaling"}, "kernel_size": [1, 1], "bias_constraint": null}, "inbound_nodes": [[["conv_dw_10_relu", 0, 0, {}]]], "class_name": "Conv2D"}, {"name": "conv_pw_10_bn", "config": {"beta_constraint": null, "moving_mean_initializer": {"config": {}, "class_name": "Zeros"}, "gamma_constraint": null, "gamma_regularizer": null, "name": "conv_pw_10_bn", "epsilon": 0.001, "trainable": true, "gamma_initializer": {"config": {}, "class_name": "Ones"}, "axis": -1, "center": true, "beta_regularizer": null, "moving_variance_initializer": {"config": {}, "class_name": "Ones"}, "beta_initializer": {"config": {}, "class_name": "Zeros"}, "scale": true, "momentum": 0.99}, "inbound_nodes": [[["conv_pw_10", 0, 0, {}]]], "class_name": "BatchNormalization"}, {"name": "conv_pw_10_relu", "config": {"trainable": true, "name": "conv_pw_10_relu", "max_value": 6.0}, "inbound_nodes": [[["conv_pw_10_bn", 0, 0, {}]]], "class_name": "ReLU"}, {"name": "conv_dw_11", "config": {"depthwise_regularizer": null, "strides": [1, 1], "bias_initializer": {"config": {}, "class_name": "Zeros"}, "use_bias": false, "activation": "linear", "depthwise_initializer": {"config": {"scale": 1.0, "mode": "fan_avg", "seed": null, "distribution": "uniform"}, "class_name": "VarianceScaling"}, "name": "conv_dw_11", "trainable": true, "depth_multiplier": 1, "padding": "same", "dilation_rate": [1, 1], "activity_regularizer": null, "data_format": "channels_last", "bias_regularizer": null, "kernel_size": [3, 3], "depthwise_constraint": null, "bias_constraint": null}, "inbound_nodes": [[["conv_pw_10_relu", 0, 0, {}]]], "class_name": "DepthwiseConv2D"}, {"name": "conv_dw_11_bn", "config": {"beta_constraint": null, "moving_mean_initializer": {"config": {}, "class_name": "Zeros"}, "gamma_constraint": null, "gamma_regularizer": null, "name": "conv_dw_11_bn", "epsilon": 0.001, "trainable": true, "gamma_initializer": {"config": {}, "class_name": "Ones"}, "axis": -1, "center": true, "beta_regularizer": null, "moving_variance_initializer": {"config": {}, "class_name": "Ones"}, "beta_initializer": {"config": {}, "class_name": "Zeros"}, "scale": true, "momentum": 0.99}, "inbound_nodes": [[["conv_dw_11", 0, 0, {}]]], "class_name": "BatchNormalization"}, {"name": "conv_dw_11_relu", "config": {"trainable": true, "name": "conv_dw_11_relu", "max_value": 6.0}, "inbound_nodes": [[["conv_dw_11_bn", 0, 0, {}]]], "class_name": "ReLU"}, {"name": "conv_pw_11", "config": {"strides": [1, 1], "bias_regularizer": null, "kernel_regularizer": null, "bias_initializer": {"config": {}, "class_name": "Zeros"}, "use_bias": false, "activation": "linear", "name": "conv_pw_11", "trainable": true, "padding": "same", "dilation_rate": [1, 1], "activity_regularizer": null, "data_format": "channels_last", "kernel_constraint": null, "filters": 512, "kernel_initializer": {"config": {"scale": 1.0, "mode": "fan_avg", "seed": null, "distribution": "uniform"}, "class_name": "VarianceScaling"}, "kernel_size": [1, 1], "bias_constraint": null}, "inbound_nodes": [[["conv_dw_11_relu", 0, 0, {}]]], "class_name": "Conv2D"}, {"name": "conv_pw_11_bn", "config": {"beta_constraint": null, "moving_mean_initializer": {"config": {}, "class_name": "Zeros"}, "gamma_constraint": null, "gamma_regularizer": null, "name": "conv_pw_11_bn", "epsilon": 0.001, "trainable": true, "gamma_initializer": {"config": {}, "class_name": "Ones"}, "axis": -1, "center": true, "beta_regularizer": null, "moving_variance_initializer": {"config": {}, "class_name": "Ones"}, "beta_initializer": {"config": {}, "class_name": "Zeros"}, "scale": true, "momentum": 0.99}, "inbound_nodes": [[["conv_pw_11", 0, 0, {}]]], "class_name": "BatchNormalization"}, {"name": "conv_pw_11_relu", "config": {"trainable": true, "name": "conv_pw_11_relu", "max_value": 6.0}, "inbound_nodes": [[["conv_pw_11_bn", 0, 0, {}]]], "class_name": "ReLU"}, {"name": "conv_pad_12", "config": {"data_format": "channels_last", "trainable": true, "name": "conv_pad_12", "padding": [[0, 1], [0, 1]]}, "inbound_nodes": [[["conv_pw_11_relu", 0, 0, {}]]], "class_name": "ZeroPadding2D"}, {"name": "conv_dw_12", "config": {"depthwise_regularizer": null, "strides": [2, 2], "bias_initializer": {"config": {}, "class_name": "Zeros"}, "use_bias": false, "activation": "linear", "depthwise_initializer": {"config": {"scale": 1.0, "mode": "fan_avg", "seed": null, "distribution": "uniform"}, "class_name": "VarianceScaling"}, "name": "conv_dw_12", "trainable": true, "depth_multiplier": 1, "padding": "valid", "dilation_rate": [1, 1], "activity_regularizer": null, "data_format": "channels_last", "bias_regularizer": null, "kernel_size": [3, 3], "depthwise_constraint": null, "bias_constraint": null}, "inbound_nodes": [[["conv_pad_12", 0, 0, {}]]], "class_name": "DepthwiseConv2D"}, {"name": "conv_dw_12_bn", "config": {"beta_constraint": null, "moving_mean_initializer": {"config": {}, "class_name": "Zeros"}, "gamma_constraint": null, "gamma_regularizer": null, "name": "conv_dw_12_bn", "epsilon": 0.001, "trainable": true, "gamma_initializer": {"config": {}, "class_name": "Ones"}, "axis": -1, "center": true, "beta_regularizer": null, "moving_variance_initializer": {"config": {}, "class_name": "Ones"}, "beta_initializer": {"config": {}, "class_name": "Zeros"}, "scale": true, "momentum": 0.99}, "inbound_nodes": [[["conv_dw_12", 0, 0, {}]]], "class_name": "BatchNormalization"}, {"name": "conv_dw_12_relu", "config": {"trainable": true, "name": "conv_dw_12_relu", "max_value": 6.0}, "inbound_nodes": [[["conv_dw_12_bn", 0, 0, {}]]], "class_name": "ReLU"}, {"name": "conv_pw_12", "config": {"strides": [1, 1], "bias_regularizer": null, "kernel_regularizer": null, "bias_initializer": {"config": {}, "class_name": "Zeros"}, "use_bias": false, "activation": "linear", "name": "conv_pw_12", "trainable": true, "padding": "same", "dilation_rate": [1, 1], "activity_regularizer": null, "data_format": "channels_last", "kernel_constraint": null, "filters": 1024, "kernel_initializer": {"config": {"scale": 1.0, "mode": "fan_avg", "seed": null, "distribution": "uniform"}, "class_name": "VarianceScaling"}, "kernel_size": [1, 1], "bias_constraint": null}, "inbound_nodes": [[["conv_dw_12_relu", 0, 0, {}]]], "class_name": "Conv2D"}, {"name": "conv_pw_12_bn", "config": {"beta_constraint": null, "moving_mean_initializer": {"config": {}, "class_name": "Zeros"}, "gamma_constraint": null, "gamma_regularizer": null, "name": "conv_pw_12_bn", "epsilon": 0.001, "trainable": true, "gamma_initializer": {"config": {}, "class_name": "Ones"}, "axis": -1, "center": true, "beta_regularizer": null, "moving_variance_initializer": {"config": {}, "class_name": "Ones"}, "beta_initializer": {"config": {}, "class_name": "Zeros"}, "scale": true, "momentum": 0.99}, "inbound_nodes": [[["conv_pw_12", 0, 0, {}]]], "class_name": "BatchNormalization"}, {"name": "conv_pw_12_relu", "config": {"trainable": true, "name": "conv_pw_12_relu", "max_value": 6.0}, "inbound_nodes": [[["conv_pw_12_bn", 0, 0, {}]]], "class_name": "ReLU"}, {"name": "conv_dw_13", "config": {"depthwise_regularizer": null, "strides": [1, 1], "bias_initializer": {"config": {}, "class_name": "Zeros"}, "use_bias": false, "activation": "linear", "depthwise_initializer": {"config": {"scale": 1.0, "mode": "fan_avg", "seed": null, "distribution": "uniform"}, "class_name": "VarianceScaling"}, "name": "conv_dw_13", "trainable": true, "depth_multiplier": 1, "padding": "same", "dilation_rate": [1, 1], "activity_regularizer": null, "data_format": "channels_last", "bias_regularizer": null, "kernel_size": [3, 3], "depthwise_constraint": null, "bias_constraint": null}, "inbound_nodes": [[["conv_pw_12_relu", 0, 0, {}]]], "class_name": "DepthwiseConv2D"}, {"name": "conv_dw_13_bn", "config": {"beta_constraint": null, "moving_mean_initializer": {"config": {}, "class_name": "Zeros"}, "gamma_constraint": null, "gamma_regularizer": null, "name": "conv_dw_13_bn", "epsilon": 0.001, "trainable": true, "gamma_initializer": {"config": {}, "class_name": "Ones"}, "axis": -1, "center": true, "beta_regularizer": null, "moving_variance_initializer": {"config": {}, "class_name": "Ones"}, "beta_initializer": {"config": {}, "class_name": "Zeros"}, "scale": true, "momentum": 0.99}, "inbound_nodes": [[["conv_dw_13", 0, 0, {}]]], "class_name": "BatchNormalization"}, {"name": "conv_dw_13_relu", "config": {"trainable": true, "name": "conv_dw_13_relu", "max_value": 6.0}, "inbound_nodes": [[["conv_dw_13_bn", 0, 0, {}]]], "class_name": "ReLU"}, {"name": "conv_pw_13", "config": {"strides": [1, 1], "bias_regularizer": null, "kernel_regularizer": null, "bias_initializer": {"config": {}, "class_name": "Zeros"}, "use_bias": false, "activation": "linear", "name": "conv_pw_13", "trainable": true, "padding": "same", "dilation_rate": [1, 1], "activity_regularizer": null, "data_format": "channels_last", "kernel_constraint": null, "filters": 1024, "kernel_initializer": {"config": {"scale": 1.0, "mode": "fan_avg", "seed": null, "distribution": "uniform"}, "class_name": "VarianceScaling"}, "kernel_size": [1, 1], "bias_constraint": null}, "inbound_nodes": [[["conv_dw_13_relu", 0, 0, {}]]], "class_name": "Conv2D"}, {"name": "conv_pw_13_bn", "config": {"beta_constraint": null, "moving_mean_initializer": {"config": {}, "class_name": "Zeros"}, "gamma_constraint": null, "gamma_regularizer": null, "name": "conv_pw_13_bn", "epsilon": 0.001, "trainable": true, "gamma_initializer": {"config": {}, "class_name": "Ones"}, "axis": -1, "center": true, "beta_regularizer": null, "moving_variance_initializer": {"config": {}, "class_name": "Ones"}, "beta_initializer": {"config": {}, "class_name": "Zeros"}, "scale": true, "momentum": 0.99}, "inbound_nodes": [[["conv_pw_13", 0, 0, {}]]], "class_name": "BatchNormalization"}, {"name": "conv_pw_13_relu", "config": {"trainable": true, "name": "conv_pw_13_relu", "max_value": 6.0}, "inbound_nodes": [[["conv_pw_13_bn", 0, 0, {}]]], "class_name": "ReLU"}, {"name": "global_average_pooling2d_1", "config": {"data_format": "channels_last", "trainable": true, "name": "global_average_pooling2d_1"}, "inbound_nodes": [[["conv_pw_13_relu", 0, 0, {}]]], "class_name": "GlobalAveragePooling2D"}, {"name": "dropout_1", "config": {"seed": null, "rate": 0.25, "name": "dropout_1", "trainable": true, "noise_shape": null}, "inbound_nodes": [[["global_average_pooling2d_1", 0, 0, {}]]], "class_name": "Dropout"}, {"name": "dense_1", "config": {"activation": "softmax", "kernel_regularizer": null, "bias_initializer": {"config": {}, "class_name": "Zeros"}, "use_bias": true, "name": "dense_1", "bias_constraint": null, "trainable": true, "kernel_constraint": null, "activity_regularizer": null, "units": 3, "bias_regularizer": null, "kernel_initializer": {"config": {"scale": 1.0, "mode": "fan_avg", "seed": null, "distribution": "uniform"}, "class_name": "VarianceScaling"}}, "inbound_nodes": [[["dropout_1", 0, 0, {}]]], "class_name": "Dense"}], "name": "model_1", "output_layers": [["dense_1", 0, 0]], "input_layers": [["input_1", 0, 0]]}, "class_name": "Model"}